…
 already exists
2021-07-15 14:39:06.926164: I tensorflow/core/platform/cpu_feature_guard.cc:142] This TensorFlow bin
ary is optimized with oneAPI Deep Neural Network Library (oneDNN) to use the following CPU instructi
ons in performance-critical operations:  AVX2
To enable them in other operations, rebuild TensorFlow with the appropriate compiler flags.
Model: sequential
_________________________________________________________________
Layer (type)                  Output Shape              Param #
=================================================================
dense_input (InputLayer)      (None, 100)               0
_________________________________________________________________
dense (Dense)                 (None, 12544)             1266944
_________________________________________________________________
batch_normalization (BatchNor (None, 12544)             50176
_________________________________________________________________
leaky_re_lu (LeakyReLu)       (None, 12544)             0
_________________________________________________________________
reshape (Reshape)             (None, 7, 7, 256)         0
_________________________________________________________________
up_sampling2d (UpSampling2D)  (None, 14, 14, 256)       0
_________________________________________________________________
conv2d (Conv2D)               (None, 14, 14, 128)       295040
_________________________________________________________________
batch_normalization_1 (BatchN (None, 14, 14, 128)       512
_________________________________________________________________
leaky_re_lu_1 (LeakyReLu)     (None, 14, 14, 128)       0
_________________________________________________________________
up_sampling2d_1 (UpSampling2D (None, 28, 28, 128)       0
_________________________________________________________________
conv2d_1 (Conv2D)             (None, 28, 28, 64)        73792
_________________________________________________________________
batch_normalization_2 (BatchN (None, 28, 28, 64)        256
_________________________________________________________________
leaky_re_lu_2 (LeakyReLu)     (None, 28, 28, 64)        0
_________________________________________________________________
conv2d_2 (Conv2D)             (None, 28, 28, 32)        18464
_________________________________________________________________
batch_normalization_3 (BatchN (None, 28, 28, 32)        128
_________________________________________________________________
leaky_re_lu_3 (LeakyReLu)     (None, 28, 28, 32)        0
_________________________________________________________________
conv2d_3 (Conv2D)             (None, 28, 28, 1)         289
=================================================================
Total params: 1680065
Trainable params: 1680065
Non-trainable params: 0
_________________________________________________________________
Model: functional
_________________________________________________________________
Layer (type)                  Output Shape              Param #
=================================================================
input_1 (InputLayer)          (None, 28, 28, 1)         0
_________________________________________________________________
conv2d_4 (Conv2D)             (None, 14, 14, 128)       1280
_________________________________________________________________
leaky_re_lu_4 (LeakyReLu)     (None, 14, 14, 128)       0
_________________________________________________________________
batch_normalization_4 (BatchN (None, 14, 14, 128)       512
_________________________________________________________________
conv2d_5 (Conv2D)             (None, 7, 7, 256)         295168
_________________________________________________________________
batch_normalization_5 (BatchN (None, 7, 7, 256)         1024
_________________________________________________________________
leaky_re_lu_5 (LeakyReLu)     (None, 7, 7, 256)         0
_________________________________________________________________
conv2d_6 (Conv2D)             (None, 4, 4, 512)         1180160
_________________________________________________________________
batch_normalization_6 (BatchN (None, 4, 4, 512)         2048
_________________________________________________________________
leaky_re_lu_6 (LeakyReLu)     (None, 4, 4, 512)         0
_________________________________________________________________
conv2d_7 (Conv2D)             (None, 2, 2, 1024)        4719616
_________________________________________________________________
batch_normalization_7 (BatchN (None, 2, 2, 1024)        4096
_________________________________________________________________
leaky_re_lu_7 (LeakyReLu)     (None, 2, 2, 1024)        0
_________________________________________________________________
flatten (Flatten)             (None, 4096)              0
_________________________________________________________________
dense_1 (Dense)               (None, 1)                 4097
=================================================================
Total params: 6204161
Trainable params: 6204161
Non-trainable params: 0
_________________________________________________________________
step10 d_loss:0.14342184(Real: 0.025226383 + Fake: 0.11819546) g_loss:2.21585
step20 d_loss:0.21569014(Real: 0.016923241 + Fake: 0.19876689) g_loss:1.7211533
step30 d_loss:0.3357258(Real: 0.017336931 + Fake: 0.31838888) g_loss:1.3037748
…
step19960 d_loss:0.82819706(Real: 0.5459631 + Fake: 0.28223395) g_loss:1.9893458
step19970 d_loss:0.76901877(Real: 0.37048882 + Fake: 0.39852998) g_loss:1.9932384
step19980 d_loss:0.8616048(Real: 0.5246653 + Fake: 0.3369395) g_loss:2.141441
step19990 d_loss:0.9072245(Real: 0.33786207 + Fake: 0.5693624) g_loss:1.5576017
step20000 d_loss:1.0945709(Real: 0.4814219 + Fake: 0.61314905) g_loss:1.499311
Model: sequential_1
_________________________________________________________________
Layer (type)                  Output Shape              Param #
=================================================================
dense_2_input (InputLayer)    (None, 100)               0
_________________________________________________________________
dense_2 (Dense)               (None, 12544)             1266944
_________________________________________________________________
batch_normalization_8 (BatchN (None, 12544)             50176
_________________________________________________________________
leaky_re_lu_8 (LeakyReLu)     (None, 12544)             0
_________________________________________________________________
reshape_1 (Reshape)           (None, 7, 7, 256)         0
_________________________________________________________________
up_sampling2d_2 (UpSampling2D (None, 14, 14, 256)       0
_________________________________________________________________
conv2d_8 (Conv2D)             (None, 14, 14, 128)       295040
_________________________________________________________________
batch_normalization_9 (BatchN (None, 14, 14, 128)       512
_________________________________________________________________
leaky_re_lu_9 (LeakyReLu)     (None, 14, 14, 128)       0
_________________________________________________________________
up_sampling2d_3 (UpSampling2D (None, 28, 28, 128)       0
_________________________________________________________________
conv2d_9 (Conv2D)             (None, 28, 28, 64)        73792
_________________________________________________________________
batch_normalization_10 (Batch (None, 28, 28, 64)        256
_________________________________________________________________
leaky_re_lu_10 (LeakyReLu)    (None, 28, 28, 64)        0
_________________________________________________________________
conv2d_10 (Conv2D)            (None, 28, 28, 32)        18464
_________________________________________________________________
batch_normalization_11 (Batch (None, 28, 28, 32)        128
_________________________________________________________________
leaky_re_lu_11 (LeakyReLu)    (None, 28, 28, 32)        0
_________________________________________________________________
conv2d_11 (Conv2D)            (None, 28, 28, 1)         289
=================================================================
Total params: 1680065
Trainable params: 1680065
Non-trainable params: 0
_________________________________________________________________
